…
pport.\n2026-03-30 19:36:17.494966: I tensorflow/core/common_runtime/pluggable_device/pluggable_device_factory.cc:271] Created TensorFlow device (/job:localhost/replica:0/task:0/device:GPU:0 with 0 MB memory) -&gt; physical PluggableDevice (device: 0, name: METAL, pci bus id: &lt;undefined&gt;)\n\n\nModel: \"sequential\"\n\n\n\n┏━━━━━━━━━━━━━━━━━━━━━━━━━━━━━━━━━┳━━━━━━━━━━━━━━━━━━━━━━━━┳━━━━━━━━━━━━━━━┓\n┃ Layer (type)                    ┃ Output Shape           ┃       Param # ┃\n┡━━━━━━━━━━━━━━━━━━━━━━━━━━━━━━━━━╇━━━━━━━━━━━━━━━━━━━━━━━━╇━━━━━━━━━━━━━━━┩\n│ conv2d (Conv2D)                 │ (None, 33, 36, 32)     │           320 │\n├─────────────────────────────────┼────────────────────────┼───────────────┤\n│ batch_normalization             │ (None, 33, 36, 32)     │           128 │\n│ (BatchNormalization)            │                        │               │\n├─────────────────────────────────┼────────────────────────┼───────────────┤\n│ max_pooling2d (MaxPooling2D)    │ (None, 16, 18, 32)     │             0 │\n├─────────────────────────────────┼────────────────────────┼───────────────┤\n│ conv2d_1 (Conv2D)               │ (None, 16, 18, 64)     │        18,496 │\n├─────────────────────────────────┼────────────────────────┼───────────────┤\n│ batch_normalization_1           │ (None, 16, 18, 64)     │           256 │\n│ (BatchNormalization)            │                        │               │\n├─────────────────────────────────┼────────────────────────┼───────────────┤\n│ max_pooling2d_1 (MaxPooling2D)  │ (None, 8, 9, 64)       │             0 │\n├─────────────────────────────────┼────────────────────────┼───────────────┤\n│ conv2d_2 (Conv2D)               │ (None, 8, 9, 128)      │        73,856 │\n├─────────────────────────────────┼────────────────────────┼───────────────┤\n│ batch_normalization_2           │ (None, 8, 9, 128)      │           512 │\n│ (BatchNormalization)            │                        │               │\n├─────────────────────────────────┼────────────────────────┼───────────────┤\n│ max_pooling2d_2 (MaxPooling2D)  │ (None, 4, 4, 128)      │             0 │\n├─────────────────────────────────┼────────────────────────┼───────────────┤\n│ flatten (Flatten)               │ (None, 2048)           │             0 │\n├─────────────────────────────────┼────────────────────────┼───────────────┤\n│ dense (Dense)                   │ (None, 128)            │       262,272 │\n├─────────────────────────────────┼────────────────────────┼───────────────┤\n│ dropout (Dropout)               │ (None, 128)            │             0 │\n├─────────────────────────────────┼────────────────────────┼───────────────┤\n│ dense_1 (Dense)                 │ (None, 1)              │           129 │\n└─────────────────────────────────┴────────────────────────┴───────────────┘\n\n\n\n Total params: 355,969 (1.36 MB)\n\n\n\n Trainable params: 355,521 (1.36 MB)\n\n\n\n Non-trainable params: 448 (1.75 KB)"
  },
  {
    "objectID": "projects/machine-learning/gravitational-waves-cnn/index.html#training",
    "href": "projects/machine-learning/gravitational-waves-cnn/index.html#training",
    "title": "Gravitational Waves Detection with CNN",
…
pport.\n2026-03-30 19:57:29.727681: I tensorflow/core/common_runtime/pluggable_device/pluggable_device_factory.cc:271] Created TensorFlow device (/job:localhost/replica:0/task:0/device:GPU:0 with 0 MB memory) -&gt; physical PluggableDevice (device: 0, name: METAL, pci bus id: &lt;undefined&gt;)\n\n\nModel: \"sequential\"\n\n\n\n┏━━━━━━━━━━━━━━━━━━━━━━━━━━━━━━━━━┳━━━━━━━━━━━━━━━━━━━━━━━━┳━━━━━━━━━━━━━━━┓\n┃ Layer (type)                    ┃ Output Shape           ┃       Param # ┃\n┡━━━━━━━━━━━━━━━━━━━━━━━━━━━━━━━━━╇━━━━━━━━━━━━━━━━━━━━━━━━╇━━━━━━━━━━━━━━━┩\n│ conv2d (Conv2D)                 │ (None, 64, 64, 32)     │           320 │\n├─────────────────────────────────┼────────────────────────┼───────────────┤\n│ batch_normalization             │ (None, 64, 64, 32)     │           128 │\n│ (BatchNormalization)            │                        │               │\n├─────────────────────────────────┼────────────────────────┼───────────────┤\n│ max_pooling2d (MaxPooling2D)    │ (None, 32, 32, 32)     │             0 │\n├─────────────────────────────────┼────────────────────────┼───────────────┤\n│ conv2d_1 (Conv2D)               │ (None, 32, 32, 64)     │        18,496 │\n├─────────────────────────────────┼────────────────────────┼───────────────┤\n│ batch_normalization_1           │ (None, 32, 32, 64)     │           256 │\n│ (BatchNormalization)            │                        │               │\n├─────────────────────────────────┼────────────────────────┼───────────────┤\n│ max_pooling2d_1 (MaxPooling2D)  │ (None, 16, 16, 64)     │             0 │\n├─────────────────────────────────┼────────────────────────┼───────────────┤\n│ conv2d_2 (Conv2D)               │ (None, 16, 16, 128)    │        73,856 │\n├─────────────────────────────────┼────────────────────────┼───────────────┤\n│ batch_normalization_2           │ (None, 16, 16, 128)    │           512 │\n│ (BatchNormalization)            │                        │               │\n├─────────────────────────────────┼────────────────────────┼───────────────┤\n│ max_pooling2d_2 (MaxPooling2D)  │ (None, 8, 8, 128)      │             0 │\n├─────────────────────────────────┼────────────────────────┼───────────────┤\n│ flatten (Flatten)               │ (None, 8192)           │             0 │\n├─────────────────────────────────┼────────────────────────┼───────────────┤\n│ dense (Dense)                   │ (None, 256)            │     2,097,408 │\n├─────────────────────────────────┼────────────────────────┼───────────────┤\n│ dropout (Dropout)               │ (None, 256)            │             0 │\n├─────────────────────────────────┼────────────────────────┼───────────────┤\n│ dense_1 (Dense)                 │ (None, 2)              │           514 │\n└─────────────────────────────────┴────────────────────────┴───────────────┘\n\n\n\n Total params: 2,191,490 (8.36 MB)\n\n\n\n Trainable params: 2,191,042 (8.36 MB)\n\n\n\n Non-trainable params: 448 (1.75 KB)"
  },
  {
    "objectID": "projects/lectures/Deep_Learning/cnn-fundamentals/index.html#parameter-count",
    "href": "projects/lectures/Deep_Learning/cnn-fundamentals/index.html#parameter-count",
…
